dst/example_dqn.pth (torch, 167663 bytes, 6 tensors)

l1.weight f4 [200, 2]
000000 d4 4b 35 bd af a7 16 3c f9 52 01 3f 57 3c 27 40
       -0.04426177 0.009195252 0.5051723 2.6130579
000010 aa 0d 82 3c 53 74 14 c0 5d 36 48 be 66 d5 ed bf
       0.015875656 -2.3195999 -0.19551988 -1.8580749
000020 56 48 c3 3d 57 e9 df be 90 90 5b bf 19 19 04 c0
       0.09535281 -0.43732712 -0.8576746 -2.0640318
000030 9d ea c4 bd bd fb 0b bf 0c 73 24 be ae 1e ed bf
       -0.096150614 -0.54681 -0.16059512 -1.8524988
000040 c8 49 6d bf a0 ec 50 c0 62 79 17 3f ae c4 c3 3e
       -0.92690706 -3.2644424 0.5916959 0.38235992
000050 a2 45 cc be 22 f5 aa c0 b6 42 39 bc 51 2a 28 3f
       -0.39896876 -5.3424234 -0.011307409 0.6568957
000060 db 6b b7 bb 6c cf 4d c0 be 75 19 3f 5d 5c 2e 3f
       -0.005597574 -3.215785 0.59945285 0.68109685
000070 c9 ec 69 bd 25 f4 21 bd 0a 8a 35 be e1 60 0b c0
       -0.05711058 -0.039539475 -0.17728439 -2.177788
000080 1e 59 49 bc d3 07 46 c0 8c c9 49 bf 51 b9 88 3f
       -0.012289314 -3.0942276 -0.7882316 1.0681554
000090 2b 07 d5 3d 2b d0 91 3e d7 84 a1 3e ac e0 0e bf
       0.10401758 0.28479132 0.3154666 -0.5581157
0000a0 5c 66 80 be 01 ae 5b c0 2d 10 a0 bd b2 7c e9 be
       -0.25078094 -3.4324954 -0.07815585 -0.45602947
0000b0 b7 2a a1 3d 00 6a c6 bd 87 d3 8c be 60 f7 c6 bd
       0.07869475 -0.09688187 -0.27505133 -0.09715152
0000c0 5c 1c 86 bf 61 3d 1e 40 f2 c8 e5 be a5 07 cd bf
       -1.0477405 2.4724963 -0.44879872 -1.6017958
0000d0 e1 84 78 3e 1a ed 2d bf d8 1d 1d 3f b8 d6 31 40
       0.2426944 -0.67939913 0.6137366 2.7787304
0000e0 27 cd 41 3f e9 07 af 3f 75 f8 79 3d e8 79 00 3f
       0.7570366 1.3674289 0.061027963 0.50186014
0000f0 7a de 16 be dc ce f7 3e 3b e2 0d bf 5a ae e1 bf
       -0.14733306 0.4840001 -0.55423325 -1.7631333
000100 fb 49 90 be a8 cb 30 40 fe bc 4a bf 1d b3 8e 3f
       -0.28181443 2.7624302 -0.7919463 1.1148411
000110 45 26 57 be b5 54 98 be ce 4d 91 be d7 76 c1 3e
       -0.21010692 -0.29752126 -0.28379673 0.3778598
000120 ac fa 30 3f a4 62 0a 40 84 c0 e2 be ac 70 04 c0
       0.69132495 2.1622705 -0.44287503 -2.069377
000130 55 9c 4b be 7d 29 24 3f b2 e4 67 3f d1 6a 35 40
       -0.19883855 0.64125806 0.90583336 2.8346446
000140 12 ba 13 3f 0f a1 ae 3d f5 80 05 3f bb 6b 01 3f
       0.57705796 0.08526813 0.521499 0.5055501
000150 41 43 56 3f ac be 6d 3f 4a 73 fb 3c 15 fb 19 bc
       0.8369637 0.9286907 0.030694623 -0.0093982415
000160 b4 f0 f3 be 21 e9 4c c0 fe c3 14 bc b0 9e 50 c0
       -0.4764458 -3.201729 -0.009079931 -3.2596855
000170 fa b4 f6 3e 3e 2c f5 3f 9f 90 c1 be 86 ea bf c0
       0.4818495 1.9154127 -0.3780565 -5.9973783
000180 79 07 82 be dd ba 72 3e 9a e5 9e be 97 60 62 40
       -0.25396326 0.23704095 -0.31034547 3.5371454
000190 4f c6 6e be 2a d5 a1 bd 21 35 31 bb fa 5d 06 40
       -0.23317836 -0.07901986 -0.0027039724 2.0994859
0001a0 b8 ad b6 3e fe 17 00 3f 83 8e f5 3e 85 a1 63 3e
       0.35679412 0.5003661 0.4796029 0.22229584
0001b0 af 77 e0 bd fe 21 87 40 9c 99 cb 3e 06 76 c7 bf
       -0.10960328 4.2228994 0.39765632 -1.5582893
0001c0 9a f2 c6 3e 1f 14 0b 40 fe 35 2c bf b1 0a 5d bf
       0.38856965 2.173103 -0.67269886 -0.8634444
0001d0 b4 48 44 3e 22 63 40 c0 07 59 07 bf 3d e2 d2 bf
       0.19168359 -3.0060506 -0.5287022 -1.6475292
0001e0 b5 2c e8 be a6 5d 04 40 ae cd 08 3f 69 2e 13 3f
       -0.4534661 2.0682158 0.5343884 0.5749269
0001f0 ff fb e2 ba 60 6a 2a c0 be 6d 7e bc bb 9a 0a 3e
       -0.0017317532 -2.6627426 -0.015529094 0.13535587
000200 ac 28 fc 3e b5 76 d2 bc 5a a3 44 3e 67 67 19 3f
       0.4924978 -0.02569137 0.19202939 0.59923404
000210 a1 44 03 bd 01 b2 0e 3f 24 b4 d2 be 69 e9 de bf
       -0.03204787 0.5574036 -0.4115306 -1.7414981
000220 83 3b 97 3c 6c c1 cf be f9 46 92 3e 5b 35 9b be
       0.018460995 -0.40577257 0.28569773 -0.30314144
000230 11 df c4 be de 71 97 3d 65 99 c0 3c ff 9c 03 c0
       -0.38451436 0.07394765 0.023510644 -2.0564573
000240 49 01 8a be 41 54 f0 be 24 f3 8b 3e 8c 9d 1c 40
       -0.26954105 -0.4693928 0.2733394 2.447116
000250 09 5f be be 2d 50 93 bf 17 90 33 3e 35 82 00 be
       -0.3718188 -1.1508843 0.17535435 -0.1254967
000260 23 22 6d be 21 ae 25 c0 cd 64 31 be 89 0b 09 c0
       -0.23157553 -2.588753 -0.17323609 -2.141329
000270 ae 48 20 bf 4c ed 8c c0 cb 0e 03 3f 10 55 6e 3f
       -0.626109 -4.403967 0.5119445 0.93098545
000280 f8 38 3b bf 2e 13 84 c0 3d bc 52 3f e4 05 49 40
       -0.731338 -4.1273413 0.8231848 3.1409845
000290 4e 88 87 be 8b f7 ad bf 17 d0 0d 3f d1 d8 de 3f
       -0.2647118 -1.3591169 0.55395645 1.7409917
0002a0 71 7a bb 3e 09 db fd 3e b1 03 b0 3e f5 ad 1b c0
       0.36616853 0.49581173 0.34377816 -2.4324925
0002b0 4c 7a 98 be 1d 0a 75 be 4a e2 a1 3d 1f 8f 2e bf
       -0.29780805 -0.23929639 0.07904489 -0.68187135
0002c0 1a 72 14 3f ac e6 5f 3f 93 ab 56 be a9 33 31 40
       0.57986605 0.8746135 -0.20963888 2.768778
0002d0 0f d2 31 bf c2 53 54 be 11 f9 22 bc a8 79 26 be
       -0.6946115 -0.20735076 -0.009947077 -0.16257346
0002e0 f2 4c a1 3e 7f f4 17 40 84 28 d4 3c e3 b4 df 3d
       0.31504017 2.3742979 0.025898226 0.10923173
0002f0 ef 5e 26 bf 8a 88 20 c0 6c d5 83 be 6b c6 3f c0
       -0.6498861 -2.5083337 -0.25748765 -2.9964855
000300 50 bf a4 3d b1 ff 70 c0 e4 e8 d9 3c d9 99 29 bf
       0.080443025 -3.7656062 0.026600309 -0.6625038
000310 65 76 f8 3e 90 62 f7 3f 07 f3 67 bd ab b7 cf bc
       0.48527828 1.9326954 -0.056628253 -0.025356134
000320 59 1d 03 bd 72 8c bb c0 1e 3c 3a 3f 8f 5e 09 40
       -0.03201041 -5.860894 0.7274798 2.1463964
000330 21 5f 95 be 09 4c cd bf d3 ba 23 3f 83 9e bf 3f
       -0.2917414 -1.6038829 0.63956946 1.4970249
000340 3e 46 f3 3d 89 6f 22 40 4a bc b9 3d f9 4f 09 bf
       0.11878632 2.5380576 0.090691164 -0.53637654
000350 08 17 06 bf ae fb b6 bf 08 0f 34 3f a2 b5 25 40
       -0.5237889 -1.4295557 0.70335436 2.589211
000360 33 50 01 be 83 fc 01 bf ce 4e b9 3e 1d 66 0c 40
       -0.1262825 -0.5077593 0.36192936 2.1937325
000370 e5 e3 21 3f d0 de 17 40 bc 3c 47 bf f0 e4 04 c0
       0.63238364 2.3729744 -0.7782705 -2.0764732
000380 d3 bc 40 3c c9 0d 4c c0 28 5e db bd 89 ff ef 3d
       0.011763769 -3.1883414 -0.10711318 0.11718661
000390 52 4b 05 bf 6b 4a 2f c0 4b e1 17 bf e6 09 e3 bf
       -0.52068055 -2.738917 -0.59328145 -1.7737396
0003a0 4b 60 2d 3f d0 45 f7 3f b6 39 ae be 13 40 90 c0
       0.67725056 1.931818 -0.34028405 -4.5078216
0003b0 bd fe 1b 3d c1 f9 26 bd da 83 42 3f 59 34 29 c0
       0.038084734 -0.040765528 0.7598244 -2.64382
0003c0 7c ce 87 3e fa f0 33 40 38 9b 1a 3f 72 c7 2a 3f
       0.26524723 2.811583 0.60393095 0.6671058
0003d0 d2 2d 2f bf 9a 9e 94 be 60 75 01 3f a9 eb 0d 3f
       -0.6842929 -0.29027253 0.50569725 0.55437714
0003e0 f2 1e ad 3e 3d 1c 30 bf fc 31 a5 bd ba 16 2d 40
       0.33812672 -0.6879309 -0.080661744 2.7045121
0003f0 96 b0 f7 3d b0 bd 44 c0 c2 06 11 3f f9 1b 03 3e
       0.12094228 -3.0740776 0.56650937 0.1280364

l1.bias f4 [200]
000000 c7 97 5c bd e9 8b 92 3e a6 68 18 3e 7e 45 ed 3d
       -0.053855684 0.28622368 0.1488367 0.1158552
000010 12 83 88 bd b1 2f b3 bd 3a 7a 00 bf 6a 6c cc 3d
       -0.06665625 -0.08749331 -0.501865 0.09981616
000020 19 e2 0b be b1 c4 08 bf ba 34 10 be 27 aa 8c be
       -0.13660468 -0.5342513 -0.14082614 -0.27473566
000030 f4 d9 48 3e ea 23 0a bf ea 11 88 be 9e 05 de 3d
       0.19614393 -0.5396105 -0.26576167 0.10840915
000040 cd d7 40 3e 05 07 24 bf d5 73 85 be c0 35 09 bf
       0.18832321 -0.6407321 -0.26064935 -0.5359764
000050 53 52 2f 3e 32 98 80 be 4e 6e 35 bd 35 82 c4 be
       0.17121248 -0.25116116 -0.044294648 -0.3838059
000060 2a 76 47 3d 2a 3d 0b bf 77 f3 fe bd b1 e1 5b bd
       0.048696674 -0.54390204 -0.12448781 -0.053682033
000070 ea 41 2f 3d 72 c9 ee be 50 38 66 be 24 30 92 3e
       0.04278747 -0.46638066 -0.22482419 0.28552353
000080 20 2c 40 3e 9b da 34 bf d2 d9 0d bf c7 d0 21 bf
       0.18766832 -0.70646065 -0.5541049 -0.63209194
000090 74 e9 00 bc 67 93 73 3e b4 f7 a7 be 0f ad d9 bd
       -0.00786816 0.23786698 -0.3280617 -0.106287114
0000a0 5f 5d 32 bf c3 a1 a1 be 70 4a 45 3e c3 18 26 bf
       -0.69673723 -0.31568727 0.19266677 -0.64881533
0000b0 8e 75 88 3e 16 f6 4c 3e 73 8b 57 3d 7c 81 cf 3d
       0.26652187 0.2001575 0.052623224 0.10132119
0000c0 13 81 12 bf 20 48 4b 3e 84 a4 e7 be d1 b7 b4 3d
       -0.572282 0.19851732 -0.45242703 0.08824123
0000d0 e8 ab 57 be 5f d8 83 be 16 1b 79 3d 96 dc b2 3e
       -0.21061671 -0.25751016 0.060816847 0.3493392
0000e0 a3 7a 6a bc 5c 7e 19 bf fb d1 85 3e f2 44 05 bf
       -0.014311465 -0.59958434 0.26136765 -0.5205833
0000f0 97 c3 7f 3e 23 d1 09 bf 54 97 27 3e ef 9f c0 bc
       0.24976955 -0.5383474 0.16366321 -0.023513762
000100 bc 7a 81 be 46 24 91 be e8 9b aa be 3e f5 5c 3e
       -0.2528895 -0.28347987 -0.33322072 0.21577927
000110 f1 46 e1 be 4b 05 25 bf c2 85 20 bf d5 d5 09 3e
       -0.43999436 -0.644612 -0.627041 0.13460477
000120 37 78 f7 be 39 61 f3 bc a3 3a 43 3e 31 e4 d1 bd
       -0.48333904 -0.029709445 0.19065337 -0.10248602
000130 ec b9 0c 3e 3a 36 da 3d a2 20 91 be 29 d5 30 3e
       0.13742799 0.10654874 -0.2834521 0.17268814
000140 73 63 ab bc 18 fc 13 3e 6d 26 0d 3e 0c ce 3d 3d
       -0.020921445 0.14451635 0.1378419 0.04633908
000150 f4 97 9d be 79 f0 66 3e a7 80 be be e2 7f a3 be
       -0.30779994 0.2255267 -0.3720753 -0.31933504
000160 34 24 ac be 86 bc 2a 3e c6 05 61 bd 68 ab 4e be
       -0.3362137 0.16673478 -0.054937147 -0.20182574
000170 73 22 e5 bb 9b 42 9d be ef e9 76 bc 9c c4 1c 3e
       -0.006992632 -0.30714878 -0.015070423 0.15309376
000180 a9 f5 89 3e 78 7d 95 be 58 fb b4 3d 2a 30 1f bf
       0.26945236 -0.29197288 0.088370025 -0.6218287
000190 e1 5a 66 3e 87 2d 94 bb ea 1e 1e 3e d0 90 e4 3d
       0.22495605 -0.004522029 0.1544148 0.11160433
0001a0 4f 2f 40 3d ea 2c f4 be af 81 fa be a9 25 ac bd
       0.046920117 -0.47690517 -0.48927066 -0.084056206
0001b0 8f 07 a8 be 3b 90 02 3c 40 63 3f 3d 91 82 fd be
       -0.32818267 0.007968958 0.04672551 -0.49513677
0001c0 ee 2f 4d 3e 58 7d 19 bf df 46 8c 3e 52 ab d2 be
       0.20037815 -0.59956884 0.2739782 -0.41146332
0001d0 28 87 5e 3d 49 e1 64 3e c0 ff 4a bd 17 70 7d 3e
       0.054328114 0.22351564 -0.04956031 0.2474979
0001e0 1d 68 c0 bc db 57 57 3e ff d3 5d bd 6a 37 22 bf
       -0.023487145 0.21029608 -0.054157253 -0.63365805
0001f0 07 e3 2d bf cf 36 de 3d 61 e0 81 3e aa 75 d7 be
       -0.6792454 0.10850298 0.253665 -0.42081958
000200 17 35 fb bd bf f8 5a bb aa c8 4e 3e 79 41 61 bd
       -0.122659855 -0.0033412424 0.20193735 -0.05499408
000210 c8 af 2e bf 1a af 16 bf 5e 47 60 bd e6 4a e1 be
       -0.6823697 -0.58860934 -0.05475556 -0.44002455
000220 95 a0 87 be c6 08 c8 3d ef b6 ac be 73 c4 db be
       -0.26489702 0.097672984 -0.33733317 -0.42923316
000230 56 7f 35 3d 5b 33 d6 bc 95 63 c9 3d a7 6a fa be
       0.04431089 -0.026147535 0.09833447 -0.48909494
000240 62 35 16 bf 03 c0 1e bf a1 6b 49 3c 9e 3c e5 3d
       -0.58675206 -0.62011737 0.012293727 0.111932024
000250 e1 ba 66 3e a9 25 d5 be 0d 96 24 3e 97 07 13 bf
       0.22532226 -0.41630295 0.16072865 -0.57433456
000260 3b b5 79 bd 90 2a 28 3e 15 48 f9 3c 78 94 9a bc
       -0.06096385 0.16422486 0.03042988 -0.018869624
000270 e1 c6 51 3e f5 1a 10 bf 40 4b 93 be c0 e1 92 3d
       0.20486023 -0.56291133 -0.2876835 0.07171965
000280 15 be 50 be e2 d4 9b bc 1e 49 9b 3c d3 73 05 3e
       -0.2038501 -0.019022409 0.018955763 0.13032465
000290 47 f6 0f bf 4a 20 ce bc 7d 83 a0 be 4c c4 a0 be
       -0.56235164 -0.025161881 -0.31350318 -0.31399763
0002a0 29 9f d1 3e cf e6 12 3e 6d 4c 53 3e 50 ba 0e bf
       0.40941742 0.14345859 0.20634623 -0.5575304
0002b0 56 e7 54 3e 50 0a 21 bf 65 03 80 be cb 9c f1 bd
       0.20791373 -0.6290636 -0.2500259 -0.11797484
0002c0 a3 99 36 bb 86 0a 1b bf 98 fc 78 3e c9 c9 34 bf
       -0.002786257 -0.6056293 0.24315107 -0.706204
0002d0 a8 d9 eb bd 43 24 81 3e 4c 2a 16 bf 0d 14 bf be
       -0.11516124 0.25222978 -0.5865829 -0.37319985
0002e0 78 45 36 3e ca bf 06 bf ff 2e 0d bf 13 d4 af be
       0.17799938 -0.52636397 -0.55149835 -0.34341487
0002f0 13 4d f2 3d 53 16 2a bf 28 cc 1f be d3 2d 87 3e
       0.11831107 -0.66440314 -0.15605223 0.2640215
000300 70 87 e7 3d 90 50 62 be eb f7 e3 3c b6 6a 49 be
       0.113051295 -0.22101045 0.027828177 -0.19669613
000310 89 9f ad bd e4 eb 36 3e 2c a1 02 bf 49 b9 91 bd
       -0.084776945 0.17863423 -0.5102718 -0.071154185

l2.weight f4 [200, 200]
000000 51 c2 bc bb 3b ab 36 bb 30 df 0c 3d 8e 07 e4 bc
       -0.005760469 -0.0027873057 0.034392536 -0.027835634
000010 02 91 8b bd df 87 6e bd a3 4b 35 bd c3 d5 90 bd
       -0.068147674 -0.058235046 -0.044261586 -0.07072022
000020 89 92 4a 3d d8 4b 0e bd 7d f4 82 bd 74 f0 17 bd
       0.049456153 -0.0347403 -0.06394289 -0.03709455
000030 da 72 00 3d cb 4e 83 bd 70 eb 52 bd 6c d9 81 39
       0.03135953 -0.06411513 -0.051494062 0.0002476679
000040 c7 5e 01 3c 98 ad b7 3c 3c 43 a6 3b a3 ad 3c bd
       0.007896132 0.022421643 0.005073933 -0.04606403
000050 da 57 62 bd a4 f3 fc 3b 16 0a 43 bc 8f 8b 75 bd
       -0.055259563 0.007719474 -0.01190426 -0.059947547
000060 0a f6 69 3d 0b 90 5d bd b9 fb d5 bc 83 eb 88 bd
       0.057119407 -0.05409245 -0.026121007 -0.06685545
000070 0c 14 22 bd 16 be bb 3c 99 3e c0 3c da fc 4c bd
       -0.0395699 0.022917788 0.023467349 -0.050045826
000080 f6 a8 1a bb 21 e6 35 bd 2e 36 fd bb e8 c2 82 3d
       -0.0023599244 -0.04440892 -0.007727406 0.06384832
000090 3b c6 6e bd 08 28 09 bd c6 1d 81 3d a6 91 8b bd
       -0.058294516 -0.033485442 0.06304507 -0.068148896
0000a0 e5 81 84 3d d7 ed 1e 3d ea 27 05 bd d6 f9 3a 3d
       0.06470088 0.03880104 -0.03250877 0.04564842
0000b0 04 f0 47 3d 73 26 8a bd e0 83 a9 bc f8 16 ae 3c
       0.04881288 -0.06745615 -0.020692766 0.021251187
0000c0 9b 70 d8 3b d9 6a 28 bd d2 12 8d bd 45 f7 5d 3c
       0.0066052205 -0.041117523 -0.06888355 0.013547723
0000d0 64 01 ab bc 7d c1 1b bd 9e 5e 0e bd b7 1a 1d 3d
       -0.020874687 -0.03802632 -0.034758203 0.038355555
0000e0 72 9b 3e bd 22 a7 82 bd 6b 14 fc 3c 51 c1 78 3d
       -0.046534963 -0.06379534 0.030771455 0.060731236
0000f0 6a eb ee 3c d9 cc cd bc 11 0a 90 bd c4 af ce 3c
       0.029164989 -0.025122093 -0.0703317 0.025230296
000100 df e6 8c 3d 9a 1c 10 3d e7 ed 88 bd 0c 35 71 3d
       0.06879973 0.035183527 -0.06686001 0.05888848
000110 0a ee 22 3c 60 73 83 bd 80 a9 7c bc 1a b2 52 3c
       0.009944448 -0.064184904 -0.015421271 0.0128598455
000120 d4 fe 71 bc b4 c4 8c bd 30 76 2b 3c d3 ad b7 3b
       -0.014770228 -0.06873456 0.01046519 0.0056054383
000130 17 5e 10 bd 49 b5 e6 bc bf e4 92 bd 51 d5 ea 3c
       -0.03524598 -0.028162615 -0.07172536 0.02866617
000140 8b 0e 3e bc 8a 61 34 bc ac a3 90 bd 3e 94 a9 bb
       -0.011600147 -0.011009583 -0.07062468 -0.0051751425
000150 f6 ff 87 3a 09 34 4b 3c 49 df 8d bd 1e 89 0a bd
       0.0010375965 0.012402543 -0.06927354 -0.03382217
000160 c5 7b 0c bd 9b f3 0f bd 26 43 fd bc de 06 30 3d
       -0.034297723 -0.03514443 -0.030915808 0.0429753
000170 d8 9f a8 3c d3 88 fb ba a1 8b 3b bd f4 8a 1b 3d
       0.020584032 -0.0019190557 -0.045787457 0.037974313
000180 29 e0 82 ba 7c 7a 7d 3d 03 e5 e0 bc e6 fa 42 bd
       -0.0009985018 0.06188439 -0.027452951 -0.047602557
000190 d1 0b 76 bc 4e 21 16 3d 23 ca 81 3d 7e ab 37 bd
       -0.015017466 0.036652856 0.06337383 -0.044841282
0001a0 4b 0b 29 bd 0c de c8 3c 54 cf d4 3b 7b 69 e5 bc
       -0.041270535 0.024519943 0.006494442 -0.028004399
0001b0 76 6c 6f 3d 28 28 31 bd 4a e3 84 3d 20 18 75 3c
       0.058453046 -0.043251187 0.064886644 0.014959365
0001c0 3f e8 45 bc 30 e5 83 3d 2a 23 69 bd 9e f2 b7 3c
       -0.012079298 0.064401984 -0.0569183 0.022454556
0001d0 76 f4 61 3c 7a 21 89 ba 19 4d 3c bc 07 43 15 3d
       0.013791194 -0.0010462247 -0.011492991 0.036440875
0001e0 ec 0c 81 3d cb 67 56 3d 26 3b 2e bd f6 d1 7e 3c
       0.06301293 0.05234508 -0.042536877 0.015552988
0001f0 59 11 90 bc 0f e2 44 3d 16 f7 31 3c f2 e2 39 bd
       -0.017586397 0.04806715 0.010862133 -0.045382448
000200 a7 92 63 bd 98 57 c2 bc e3 e9 ec 3c cd 86 13 3d
       -0.05555978 -0.023723409 0.02892012 0.036017228
000210 91 e2 56 3d 9a 3b c1 3c b0 60 2c 3d 13 8a e2 38
       0.052462164 0.02358799 0.042084396 0.00010802238
000220 57 c8 a5 3c c3 0c eb bc d5 0e c0 3a bf fe e0 bc
       0.020237131 -0.028692609 0.0014652858 -0.027465222
000230 72 76 ae bc d6 ee 78 3c 43 07 d0 bc f9 bf 62 3d
       -0.021296714 0.015193662 -0.025394088 0.05535886
000240 ad fd 22 bd 0a 1c 8b bd 19 72 81 3d 96 a7 70 3d
       -0.039792705 -0.067924574 0.063205905 0.058753572
000250 97 24 53 bd 92 75 29 bc 90 74 8d 3c d5 9e 8d 3c
       -0.051548567 -0.010342972 0.017267495 0.017287651
000260 70 ba e2 3a 3f dc 7c 3d f8 bc 4c 3d af 4b f2 3c
       0.0017297994 0.06173348 0.049984902 0.029577104
000270 25 c8 23 bc c6 37 cd bb 95 cd 65 3d ba d8 68 3d
       -0.009996449 -0.006262752 0.05610426 0.05684731
000280 09 6a ba bb 68 bb 86 3c 47 d0 9c bd 55 6e 6c 3d
       -0.00568891 0.016446784 -0.07656913 0.05772241
000290 ce 17 75 bd d9 0c 99 3c 6a f2 16 3d 86 65 45 3d
       -0.059837155 0.018682884 0.036852278 0.048192523
0002a0 36 fb 84 bd cf 4c 13 bc 39 c2 18 bd 1a 01 65 3d
       -0.06493227 -0.008990481 -0.0372946 0.055909254
0002b0 e9 90 10 3d da cd 28 3d be bc 8c bd 41 1f 42 bc
       0.035294447 0.04121194 -0.06871937 -0.011848272
0002c0 4a 5e 28 3d 7b 2c 3e 3d c4 7c 08 bd 7f 62 07 3d
       0.041105546 0.04642914 -0.03332211 0.033052918
0002d0 b1 4c 24 3b d3 2d 09 3d fc 52 60 3d ed 6b 55 bd
       0.0025070126 0.033490967 0.05476664 -0.05210488
0002e0 82 d8 d2 bc c2 af 89 bd c6 a4 65 3d e2 e4 6c bd
       -0.025738005 -0.06722976 0.056065343 -0.057835467
0002f0 66 7a 15 bd 1c 9a 1f 3d 44 e1 64 3d 0c 65 83 bc
       -0.03649368 0.03896533 0.055878893 -0.016039394
000300 b4 ba 20 bd 66 05 ce 3c f7 4a 13 3d 26 6e a5 3c
       -0.039240554 0.025149059 0.035960164 0.020194124
000310 08 03 46 3d 77 9b 43 bd 3f 01 59 3d bb 43 bc 3c
       0.048342735 -0.047755685 0.052979704 0.022981515
000320 eb 8a 76 bd 8f df 2b 3d 4b dc 71 bd 0d df 52 bd
       -0.060191076 0.04196125 -0.05904798 -0.05148225
000330 d8 e9 18 bd 06 9a 65 bd 67 c2 37 bd 6f 85 91 bb
       -0.037332386 -0.05605509 -0.04486313 -0.0044409554
000340 11 2a a4 bd 20 43 48 3d 5d 7f 27 3d c7 67 21 3d
       -0.08015836 0.04889214 0.040892947 0.03940561
000350 b5 74 87 3c 38 b9 ed 3b 4f 57 44 bc 2d 4b 3e 3c
       0.016535142 0.007254746 -0.011983707 0.011614603
000360 04 3b ad 3c 74 7a 2d 3d 3a 6f 88 bd 8a 51 37 bd
       0.021146305 0.04235311 -0.0666184 -0.044755496
000370 3f 5b 42 bc bb ad 8e 3d 63 d9 45 3c 04 e6 d7 bc
       -0.011862575 0.0696673 0.012075755 -0.026354797
000380 29 ae 2c bd 8d 69 68 bd 15 79 f3 3c 81 71 2a 3d
       -0.04215828 -0.056741286 0.029720822 0.041612152
000390 87 df 1e 3d c5 65 ac 3c fa db 9e 3c e5 6d b1 bc
       0.03878739 0.021044621 0.019392002 -0.021658847
0003a0 6b 82 da bc e2 29 08 3d d1 37 4e bc 64 61 06 bd
       -0.026673516 0.033243068 -0.01258655 -0.032807723
0003b0 bc 57 ea 3c 14 1c ce 3c 1b 6a 6b bd a7 0d e8 bc
       0.028606288 0.025159873 -0.057474237 -0.028326822
0003c0 2b 25 80 bd ab e3 26 bd 8e e1 0e bd ab 1b 4c bd
       -0.06257089 -0.040744465 -0.034883074 -0.049831074
0003d0 fd 97 11 3d fe 82 0f bc 56 a5 02 3d 57 f9 09 bb
       0.035545338 -0.008759258 0.031895958 -0.002105316
0003e0 8a 0c e8 bb e2 14 73 3d 0f b8 4d bd b1 aa 0e bc
       -0.007081573 0.059346087 -0.05022436 -0.008707688
0003f0 fe fb 17 3d 63 a8 81 3c 59 8e 5b 3d 70 26 8b bd
       0.037105553 0.015827363 0.05360255 -0.06794441

l2.bias f4 [200]
000000 4f 6a ef bc 6d 22 a2 bd 1e 6d be bd 94 1a 0f 3d
       -0.029225497 -0.079167224 -0.09298156 0.034937456
000010 3c 61 66 bc aa 9b 68 bd 63 b9 ae bb 90 f3 96 bd
       -0.014061268 -0.056789078 -0.0053321584 -0.073706746
000020 7a d3 b8 bd b4 84 1a 3d a7 47 9d bd 00 aa d7 3c
       -0.09024711 0.03772421 -0.07679682 0.02632618
000030 ed 4c 0c bd 1e 5c c7 bd 36 11 03 3d 96 84 d3 bc
       -0.03425305 -0.09734367 0.031998836 -0.025820058
000040 48 0e c5 3c 36 c7 aa bc e3 f1 ce bc 3d f6 12 bc
       0.024054661 -0.020846944 -0.025261825 -0.008969841
000050 26 e3 a9 3d a4 53 37 bd c7 2d 84 bd e4 c3 82 3c
       0.08295278 -0.0447575 -0.06454044 0.015962549
000060 46 21 68 bd 0c a5 45 3e ba ed 8b 3d df fb 0e 3e
       -0.056672357 0.19301242 0.06832452 0.13963269
000070 f9 16 b0 bc b2 85 3b bd 0d c7 2e bd 6c 08 1f 3d
       -0.02149533 -0.0457818 -0.0426703 0.03882639
000080 45 0c a5 3c eb 95 f6 bc ad 13 95 bd f8 92 5b bd
       0.020147452 -0.030100783 -0.072791435 -0.053606957
000090 aa 11 a5 bd c7 f0 dc bd 43 3c 0c 3e 9d be 75 bd
       -0.0806001 -0.10788112 0.13694863 -0.059996236
0000a0 fd ab ca 3d fc bd 70 b8 47 87 7c be 54 36 8f ba
       0.098960854 -5.7397396e-05 -0.24660979 -0.0010926225
0000b0 a3 10 a2 3d f9 76 13 bd 46 63 8b bd 6a 86 5b ba
       0.079133295 -0.036002133 -0.06806044 -0.0008374216
0000c0 f3 d5 84 bd d8 eb bc ba 6f 8a 22 bd 64 bd 93 bd
       -0.0648612 -0.0014413549 -0.0396828 -0.07213858
0000d0 a4 51 24 bd ad 7e 0f bd f6 87 f6 3b 81 7c c9 3d
       -0.04011692 -0.035032917 0.007523532 0.098382
0000e0 7a 81 0c bd 20 d4 61 3c e6 c8 c8 bd 97 28 11 3d
       -0.034303166 0.013783485 -0.09803943 0.0354391
0000f0 7a a2 c0 ba d1 c8 ca b9 53 71 85 3b 9f cb bd bd
       -0.0014696859 -0.00038678062 0.004072347 -0.09267353
000100 be c6 86 bd f0 38 43 bd 09 b1 14 3e bb 4c a0 bd
       -0.06580876 -0.04766172 0.14520659 -0.07827135
000110 29 92 9c bd 66 2a 30 3c de 15 9a bd 0d 63 f7 ba
       -0.07645065 0.010752296 -0.07523702 -0.0018874124
000120 c7 7a 37 3f 73 ed 8d bd e1 e1 6e 3b 21 1a a5 bc
       0.7167172 -0.069300555 0.0036450552 -0.02015406
000130 d6 38 4f 3d a0 e5 96 bd 38 36 93 3c 9a 9b 40 3d
       0.050591312 -0.07368016 0.01797019 0.047023393
000140 7e 17 33 bd d3 3e 62 bd 03 ed ca bd 65 06 71 b9
       -0.043723576 -0.055235695 -0.09908488 -0.00022985933
000150 59 ae 53 3c 34 a5 96 bc 64 97 81 3e fe 99 6a bd
       0.012919986 -0.018389322 0.25310814 -0.057275765
000160 5b 1d 99 bd c8 76 a5 bd 81 6d 17 bd 95 b9 54 bc
       -0.07476302 -0.08079296 -0.036969665 -0.012983699
000170 5d 68 d7 3c 9e a0 23 bd 3f 58 15 bd 22 ba 5c bd
       0.026294881 -0.0399481 -0.03646111 -0.053888448
000180 3d b1 9c bd 0a 2b cd bd 58 ad b0 3e a9 d0 6b bc
       -0.07650993 -0.10017975 0.3450725 -0.01439301
000190 b5 fd 79 bc 53 f4 57 bd 19 31 51 bd dd 0f 10 ba
       -0.015258242 -0.05272324 -0.051072214 -0.0005495528
0001a0 46 c2 8e 3b a4 02 2e bd 52 ac 9e 3d d7 32 35 3a
       0.0043566553 -0.042482987 0.07747711 0.0006912178
0001b0 3f cf ec bb d8 c3 61 3d 4d 96 07 3d 8a cd f2 3c
       -0.007226854 0.05511841 0.033102322 0.029639024
0001c0 ab b1 bd 3c 9f 6f ce bb 31 c6 d2 bc 29 87 52 3e
       0.023156008 -0.0062999274 -0.02572927 0.20559372
0001d0 34 a2 db ba 62 88 0e bd 32 0e 25 3c 5b 81 7c bd
       -0.0016756714 -0.034798034 0.010074185 -0.0616468
0001e0 63 ac 7e bd 78 c1 ca 3e 4c 02 ab bd ee 61 fd 3d
       -0.06217612 0.3960073 -0.083500475 0.12372194
0001f0 44 d3 53 bd cb 5b ba bc 9d f1 f6 bc 6f d8 c8 3c
       -0.05171515 -0.022748848 -0.030144507 0.024517266
000200 f5 30 24 bd a8 1b af bd ac 2c 85 bd e8 ff 3d be
       -0.04008575 -0.08550197 -0.06502661 -0.18554652
000210 4c d4 17 3b 96 3b 22 bd 25 0c d1 3c 0a d4 98 bd
       0.002316731 -0.039607607 0.025518486 -0.07462318
000220 9c 6b 42 3d b5 3f 85 bd 44 81 c0 3c 43 4f 01 bd
       0.047465906 -0.06506292 0.023499139 -0.03156973
000230 63 30 fb 3d f4 26 9f bb 33 3f f0 bd 6f c6 75 bd
       0.122650884 -0.0048569385 -0.11730804 -0.060003694
000240 e4 8a 85 bd a1 33 1a bd bb 15 3c bd 23 9c 5b bd
       -0.06520632 -0.037646893 -0.04591916 -0.0536157
000250 0c a0 15 bc 58 06 d3 bc 12 0e 52 bd 68 92 a8 3c
       -0.009132396 -0.02575986 -0.05128295 0.020577624
000260 89 e0 5d bc e9 f9 85 bd 28 98 00 bd 55 d0 65 3c
       -0.013542303 -0.06541807 -0.031395108 0.014026721
000270 b6 53 2b bc f1 aa 91 3d ab f2 63 3d f0 63 21 bd
       -0.01045697 0.071126826 0.055651348 -0.03940195
000280 45 d2 55 bc fd eb bd 3c 4b de 27 bd da 83 a2 bb
       -0.01305062 0.023183817 -0.04098348 -0.0049595656
000290 e7 13 af bc f3 30 d0 bd b6 df 56 bc 4a 5d 25 bc
       -0.021371795 -0.10165586 -0.01311486 -0.010093043
0002a0 da 2e 1e 3d 0f 68 dc bd ca 2d 93 bd 54 f4 30 3d
       0.0386189 -0.10762035 -0.07186468 0.04320176
0002b0 8e df 92 bd da 8d 09 bd 3d 9b bb 3d e2 6a 88 bd
       -0.07171546 -0.033582546 0.09160469 -0.06661011
0002c0 cc eb 3c bc 7d 42 09 3d 3f 5a ad bb 45 12 9e bd
       -0.011530828 0.033510674 -0.005290299 -0.077183284
0002d0 5f 94 e4 3c 12 dc 6e bd 88 72 b1 3c 3e 89 65 bd
       0.02790278 -0.058315344 0.021661058 -0.056039087
0002e0 32 ff 6e bc 62 40 9a bd 89 dc 94 bb 99 1a c6 3d
       -0.0145872105 -0.07531811 -0.0045428914 0.09673042
0002f0 2c a6 bd 3c 48 2d cb bd a1 8e 8a bd fd 2f 11 3e
       0.023150526 -0.09920746 -0.067654856 0.14178462
000300 1e a7 29 bd ce 53 78 bd a4 b5 74 bd eb fe 87 bd
       -0.04141914 -0.060626797 -0.05974354 -0.066404186
000310 14 1d 6a bb 03 09 b7 bc 65 41 d9 3c 77 7a 46 bd
       -0.0035722898 -0.022343164 0.02652044 -0.048456635

l3.weight f4 [3, 200]
000000 10 8a 2e bd 8d 38 1f bb 1d e6 82 3d 24 79 3f 3c
       -0.042612135 -0.0024295182 0.06391547 0.011686597
000010 36 2f 36 3d f9 36 b6 3d 8d bb 65 3d e7 58 19 bc
       0.044478618 0.08897204 0.056087065 -0.009359575
000020 af 4c b0 3c f0 dc 80 3b 19 d2 77 3c 53 2c 28 bd
       0.02152094 0.003932588 0.015125775 -0.041057896
000030 35 e3 56 bd c3 22 17 bb 98 1b 51 3d 64 0c 85 bc
       -0.052462775 -0.002306149 0.051051706 -0.01624126
000040 cd e1 18 bb e9 9e 00 bc 33 c9 8c bc ac 27 05 bd
       -0.0023327947 -0.007850387 -0.017185783 -0.032508537
000050 73 f2 27 3e 2b 30 a7 bc e1 0a 35 bd 72 6b 04 bd
       0.16401081 -0.02040871 -0.044199828 -0.03232903
000060 61 4d aa bc 19 cd 1a 40 bc 2e 19 40 cb 15 01 40
       -0.02078885 2.4187682 2.3934774 2.0169551
000070 9c 52 19 3d b5 69 eb 3f 27 d9 f0 bc a7 b3 d0 bc
       0.037432298 1.8391634 -0.029400421 -0.02547629
000080 81 87 8c bc e9 88 9d bc f0 25 df bc 2e 40 26 3d
       -0.017154457 -0.019230323 -0.02723977 0.04058855
000090 9a 0d 33 bc 6f da 53 bd 64 83 f7 3f 11 1d 90 3c
       -0.010928536 -0.051721986 1.9336972 0.017591985
0000a0 8e cd 05 40 c2 83 f8 3f da e0 be 3f ea ca f1 bc
       2.090671 1.9415209 1.4912369 -0.029515702
0000b0 55 a8 1a 40 1c 51 c5 3e 9e 84 f1 bb 6a 39 4f 3a
       2.4165242 0.38538444 -0.0073705455 0.00079049787
0000c0 d0 bc 97 3c ca 9e 8c 3d 18 a4 b2 3c 49 31 59 3d
       0.01852265 0.06866224 0.021806762 0.053025518
0000d0 67 74 ad 3c d3 86 63 3d 57 46 07 bd 9f 0f e1 3e
       0.021173669 0.0555485 -0.033026066 0.4395723
0000e0 3b 8d 5e 3d 8a 3f f3 3c 9d 54 c7 bc f5 f3 20 bd
       0.054333907 0.029693384 -0.024332339 -0.039295156
0000f0 c1 e7 f9 bc f2 c5 fc 3c 26 69 85 bd b5 06 06 3d
       -0.030506017 0.030856106 -0.06514196 0.03272124
000100 6f 3d b7 bc a2 33 13 3c 19 2d 1e 40 30 34 e5 3f
       -0.022368161 0.008984478 2.4715025 1.7906551
000110 96 7d f1 bc 6e 97 be bc 44 45 09 bd 52 2e 2c 3d
       -0.02947883 -0.023265567 -0.033513322 0.042036362
000120 db 90 a0 3f ad 8b 68 bc 29 8b 81 3d b6 54 bb 3c
       1.2544206 -0.014193458 0.06325371 0.022867542
000130 73 0e 5c bd 98 0c a6 bb 4f 56 6b bc 2a 5d c9 3c
       -0.053724717 -0.0050674193 -0.014363839 0.024580557
000140 20 9d 1c 3d ad 69 10 bd 28 67 2d 3c 4b a4 d4 bc
       0.038235784 -0.03525703 0.010583676 -0.025957247
000150 41 bc f3 3b 7e 8e 55 bc 14 35 ca 3f 1f 8b 67 3d
       0.007438213 -0.013034461 1.5797448 0.05652916
000160 0e 97 b1 bd bc c2 35 bd e6 56 e3 bc b9 5c 15 3c
       -0.086713895 -0.044375166 -0.027751397 0.009116345
000170 4a fe ee bc ec fe f8 3c 5d ad 07 3f ee ec a0 3d
       -0.029173989 0.030394994 0.52998906 0.07857691
000180 72 cd 42 bd 5b b3 de bb 21 fa 2a bf ad cc 08 bd
       -0.04755921 -0.006796283 -0.66787916 -0.03339832
000190 30 ab 52 bc 0b a0 36 bc db 13 b5 bc 7a 4f 91 b9
       -0.012858197 -0.011146556 -0.022104194 -0.0002771577
0001a0 49 8d fc bc cc ff 1c 3d b5 d1 9c 3d 72 3d 00 3d
       -0.030829089 0.038329884 0.07657186 0.0313086
0001b0 d9 81 e9 bc 1a 58 f6 3f 96 5a 41 3c 78 3b ae 3c
       -0.028504299 1.9245636 0.0118013825 0.021268591
0001c0 e3 a1 36 3e 13 1f 76 3c 38 52 ae 3c d1 8c 0f 40
       0.17835192 0.015022057 0.02127944 2.2429698
0001d0 91 23 8a bc 9b 23 35 3d de 32 10 40 a8 aa 90 3a
       -0.016862663 0.04422341 2.2531047 0.0011037188
0001e0 1e e6 9b bc ac 42 85 bd 24 be 0d 3d 96 34 16 40
       -0.019030627 -0.06506857 0.03460516 2.3469596
0001f0 1a 21 64 3d a6 cb be 3d 86 35 26 3d 4c ff 42 3c
       0.05569563 0.093161866 0.040578388 0.011901688
000200 ec ef 01 bd 25 9a 13 3d 6f 49 30 3c b2 0b 3b 3f
       -0.031722948 0.036035676 0.010759695 0.7306472
000210 d4 ef 86 3c 4a 4a fe bc 53 e0 71 3d dc 71 19 bd
       0.01647178 -0.031041283 0.059051823 -0.0374621
000220 3b 1b 67 3d 59 35 5c bd ed 17 2a bc 25 0f 20 3b
       0.056422453 -0.053761814 -0.010381681 0.002442309
000230 1c 20 06 40 07 0c 7f bb d4 59 75 bf 5b f1 c5 3c
       2.0957098 -0.003891708 -0.9584019 0.024162939
000240 81 98 ae bb 6c 6b 3f 3d 34 77 c0 39 bf 24 b2 bc
       -0.0053282385 0.046733305 0.00036709907 -0.021746038
000250 a9 ea 05 3c 3d 8a c2 bb 09 69 21 3c d5 28 be 3a
       0.008173623 -0.0059368894 0.0098517025 0.0014508019
000260 dd 37 18 bd 1f e0 c5 bc ad f3 68 bd 66 9c fc 3b
       -0.03716265 -0.02415472 -0.056873012 0.007709074
000270 d4 3e 18 bd 2e 48 0f 40 3a f6 06 3c fd 5b 99 bc
       -0.037169293 2.2387805 0.008237416 -0.018720621
000280 a8 45 9b bb b6 ff 1e 40 b9 43 83 3d 18 94 9e bc
       -0.0047385283 2.4843574 0.064094014 -0.019357726
000290 9a ec c3 bd be 84 6d 3d 1e e7 30 3d 8b df 36 3c
       -0.095666125 0.05798792 0.04318916 0.011161695
0002a0 92 cb 0a 40 d9 c2 a4 b9 c1 9f 05 3d a9 8c 83 bd
       2.168675 -0.0003142569 0.032623056 -0.06423313
0002b0 99 84 dc bb a7 16 1b 3d e6 14 10 40 9a 50 af 3c
       -0.006729674 0.0378634 2.2512755 0.021400739
0002c0 be 06 23 3d 11 92 4b be 88 40 d5 bc 78 ce 0c bd
       0.03980135 -0.19879939 -0.026031747 -0.03437659
0002d0 ee 68 95 3c d2 9a 78 3d 43 32 98 bd cf cb 19 3c
       0.018238511 0.060694523 -0.07431462 0.009386971
0002e0 53 a3 2f 3d f7 cc 85 3d a5 37 49 3c a9 8e 51 3f
       0.042880367 0.065332346 0.012281333 0.8185831
0002f0 50 fd ce bc da 2e 5a 3d ab a6 27 bd dc a3 08 3f
       -0.025267273 0.053267337 -0.04093043 0.5337503
000300 df ff 65 3c a2 13 d2 3c fe cb 0c bc 09 53 9f bc
       0.014038055 0.025644127 -0.008593557 -0.019448774
000310 7e 14 90 bc 5b 36 28 bc 75 ae 89 bc d1 96 b8 bb
       -0.017587896 -0.010266866 -0.01680682 -0.005633213
000320 a7 09 f9 bc 0a 33 3b 3c bd 25 6f 3c 61 48 85 3b
       -0.03040011 0.011425743 0.0145964 0.004067466
000330 b1 87 39 3c fd 91 a9 bc 1a 3a 0a bd e3 89 44 3d
       0.011323855 -0.020699495 -0.033746816 0.04798306
000340 3c 6e 34 bd 06 d5 50 bc d1 f8 57 3d 59 c6 e7 bc
       -0.04405044 -0.012746101 0.052727524 -0.028292822
000350 9a 6b bd bc 23 15 d0 bc e8 08 48 3d 06 5d a0 bb
       -0.023122597 -0.025400704 0.04883662 -0.0048939018
000360 ff 89 ab 3c eb 47 db bb 8c 81 11 bb 54 cb 5b 3d
       0.020939825 -0.006691923 -0.002220246 0.053660706
000370 9d 73 f6 be eb 79 fe bc 71 92 6c 3d 3f 05 de bc
       -0.4813508 -0.031063994 0.057756845 -0.02710211
000380 3d 5e cd 3b 01 33 0c 40 4d 9f 1a 40 e0 ce 55 40
       0.0062673376 2.190613 2.415973 3.3407516
000390 71 a3 da 3b b3 cf d2 3f 4e f5 77 3d 76 a5 30 bd
       0.0066723158 1.6469635 0.060536675 -0.043126546
0003a0 6b 54 dc bc 6e 5b 86 bb 62 51 a8 bc a4 c3 ac 3b
       -0.026895722 -0.0041002547 -0.020546619 0.0052723456
0003b0 c4 7a 89 bc 23 88 17 bd 5c 12 53 40 9f 7a 64 bd
       -0.016782172 -0.036995064 3.2979956 -0.055781003
0003c0 91 42 c4 3f a1 f1 ee 3f d4 6a de 3f ac 47 86 3d
       1.5332814 1.8667489 1.7376351 0.06556639
0003d0 d9 27 19 40 7e 53 39 3f 71 c7 c4 3c a6 e0 c1 3a
       2.393057 0.72393024 0.024020882 0.0014791682
0003e0 18 75 04 bd a3 ce 57 bd d3 67 15 3d c4 bd 4e bd
       -0.03233823 -0.0526873 0.036475968 -0.050473943
0003f0 2d 58 e5 bc 3f fe 16 bc c2 5b 54 3d cc af 2c 3f
       -0.027996147 -0.00921589 0.05184532 0.67455745

l3.bias f4 [3]
000000 b0 98 f6 bb 6d cf 20 bc 24 7c f7 3b
       -0.007525526 -0.009815079 0.0075526405
