dst/example_dqn.pth (torch, 167503 bytes, 6 tensors)

l1.weight f4 [200, 2]
00000000: 6f49 a53e b89c fbbe 3a83 35bf 1544 b33e
00000010: b698 20be d42e 2c3e 6a44 cb3d a5a2 5540
00000020: 2d75 743e ec59 62bf 7530 b7be 9308 91be
00000030: e6f1 52be b6be ed3d 4861 4cbe 8090 f3be
00000040: 0d8c 4c3f 50b4 d53f 1712 483e b0ce 853f
00000050: 4750 fdbd aa10 82be ee08 48bd 3c71 4a3f
00000060: c380 043f a3ee b73f 36b2 b0be 0a90 903f
00000070: b6b2 4cbd 14b0 ab3d b27f 9a3c 78aa 00c0
00000080: 6570 b3bd 7ddd 2dbf be61 043f ce4d a43f
00000090: e344 593e cfc7 cd3c f5b2 7e3e 5e55 343e
000000a0: dd88 c93e 1ada fa3f 2e90 a93d 1938 04bf
000000b0: 3e12 123d 079c 1740 fac7 283e f5ef 5340
000000c0: e2ee 103d 45f0 a63f 9d5d f73d 3b1d c53f
000000d0: 0d99 18be 448a 783f 8289 a9be 9cd3 403e
000000e0: 03f4 3abf 4948 efbf 0d46 a53e dafa b83f
000000f0: 7327 a9be 10fa c13f 7323 2fbf d875 93bf
00000100: 69c0 b33c a95d 0d40 6a91 313d e83e d73e
00000110: 92dd 913d f182 02c0 5b67 1d3f da18 4540
00000120: 0aeb dcbe fb9f 10bf 3206 8ebe 9e7b c43f
00000130: 0601 a53e cbbe 8bbf 484f 02bf e579 19bf
00000140: 247d c63e 9e18 183f 5b28 4a3d 5f89 cabb
00000150: 7e62 4d3e aa0a d43f 423f e73e 97e5 4c3f
00000160: 9f08 733e 4b93 c93e 7065 7a3d f37a 20bf
00000170: b52b 36bf 1090 87bf 652d 9b3d 3858 c63f
00000180: 9341 883e d8eb f53f d02b c9bd 89fc 9b3f
00000190: 26d4 1e3f 1657 0ebf 3dbe dd3e 6c69 5940
000001a0: 8f92 963d bab3 283e 8c64 e73d 34bb 2bc0
000001b0: 350f 61be d45e bd3f 4417 1c3f b1ec 0c40
000001c0: c8cd 123e 9336 fc3f a7b6 67be 02a6 34bf
000001d0: ec3f 07be 82ee 6d3d e3c9 96be c2b6 2fbf
000001e0: a618 593e 6245 06bf febe 8f3e 7509 02c0
000001f0: 7931 b5bd 4366 64be 5178 9c3e 6a16 80bf
00000200: b45d 3b3d 92cd 2abf 62eb f7bd d778 953e
00000210: 7fd2 e0bc 3c25 0d40 c6ed e23d 429c da3f
00000220: 6888 04bf e795 30bf 8f51 ef3d d258 b83e
00000230: f9b0 d53e 17a5 863f ac11 1f3f 43b5 a4be
00000240: 6e43 dc3e b836 293f d02c 32be 455c 7bc0
00000250: 2dbe 1b3b f799 11c0 993d 923e c6dc 2a40
00000260: 7877 4c3e 29ef b2be 7348 9a3e 163e 593d
00000270: 8370 453e 357d d83f 0324 3d3f d7d1 3f40
00000280: 984a c13e 89ce 98be a120 b23e d6bd 46be
00000290: edb3 363f cefe 04bf 761d 493e 301e fc3d
000002a0: e690 403e d6d8 943e 16ca 34be 5ae2 193c
000002b0: 155f 5e3e 42fe 2340 cda2 cd3e 002c 72bc
000002c0: 5c81 953d 2de7 b83f eac2 45be 1297 67c0
000002d0: 3c96 e7be 44e9 14c0 c9fc dcbc b80e bfbe
000002e0: d126 b43e 096d afbf 8f6c b83e f4af 0a3f
000002f0: 4c1f bcbe b7a5 f73f a28a eabe d936 e5be
00000300: 156a a03e 66e2 2fbf c871 98be 5f1a c9bf
00000310: 5298 233e 6554 f7be cea4 fd3c 526b 5ac0
00000320: cec8 fa3c c395 70c0 3e05 adbd 763f 8c3f
00000330: 70e2 f9bc a512 4340 7616 0ebf eca6 cdbe
00000340: cfd5 d1be 64ba 54c0 86f1 d2bd f2f1 07bf
00000350: 5dfe fc3e 050f 11bf 07ed c73e 8180 043f
00000360: f633 093f bbc3 8ebc cb70 b0bd a739 093f
00000370: 4bd6 143d 21c8 813d 9ce6 09bd c904 9cbe
00000380: 564d b93e cd20 88be 4a2f e83e 7c19 e63f
00000390: 9dab b83e ebd4 fcbe c0e0 12bf a63a 3fbf
000003a0: 2d44 323f bd36 1dbf a959 d4bb 0c89 a4be
000003b0: 4716 73be 3026 9b3c 46c6 463e 85aa 083f
000003c0: 1d33 81bd 7736 06bf 998b 1abd 4c07 d6be
000003d0: 5911 953e 0270 2abf e614 90bd 87c6 cf3e
000003e0: 652e 3f3d e7b2 863d c8f9 4bbe f81e 97bf
000003f0: e3f8 a53e d6a8 1fbf 4a07 04bf 02dc a0bd
0.32282588 -0.49143004 -0.7090336 0.3501288 -0.15683255 0.16814739 0.09925158 3.338052
0.23872824 -0.8841846 -0.35779157 -0.28326854 -0.2060009 0.11608641 -0.19958985 -0.47571182
0.799012 1.6695652 0.1953815 1.0453701 -0.12368827 -0.2540334 -0.04883664 0.7907903
0.51758975 1.4369701 -0.34510964 1.1293957 -0.04997512 0.083831936 0.018859718 -2.0104046
-0.08761672 -0.6791609 0.5171164 1.2836244 0.21217684 0.02511969 0.24872954 0.1761069
0.3936223 1.9597809 0.08279453 -0.516481 0.03566193 2.3688982 0.16482535 3.3115208
0.035384066 1.3042074 0.12078402 1.5399545 -0.14902134 0.97085977 -0.33112723 0.18830723
-0.7302858 -1.8693935 0.32280007 1.4451554 -0.3303791 1.5154438 -0.68413466 -1.1520338
0.021942334 2.2088416 0.04335157 0.4204018 0.07122339 -2.039242 0.6148583 3.0796418
-0.4314807 -0.5649411 -0.27739102 1.5350225 0.32227343 -1.09176 -0.50902224 -0.5995162
0.3876735 0.5941256 0.049354892 -0.0061809267 0.20057103 1.6565754 0.4516545 0.80037826
0.23733757 0.39370188 0.061131895 -0.62687606 -0.7116044 -1.0590839 0.07577018 1.5495672
0.2661253 1.9212599 -0.0982281 1.2186443 0.6204246 -0.5560163 0.43309203 3.3970594
0.073521726 0.1647481 0.11298475 -2.683301 -0.21978457 1.4794564 0.60973 2.2019465
0.14336312 1.9704155 -0.2262827 -0.7056581 -0.13207978 0.058088787 -0.29450902 -0.6863824
0.21200809 -0.5244962 0.28075403 -2.0318272 -0.08847327 -0.22304635 0.30560544 -1.000684
0.04574366 -0.66719925 -0.121054426 0.29193756 -0.027444122 2.2053976 0.11080508 1.7078936
-0.5177064 -0.6897873 0.11685478 0.36005265 0.41736582 1.0519131 0.6213634 -0.32169542
0.43020195 0.6609912 -0.17399907 -3.9275067 0.0023764477 -2.2750223 0.2856262 2.669725
0.19967449 -0.3494809 0.301334 0.053037725 0.19281201 1.691321 0.73883075 2.9971826
0.37752223 -0.29845074 0.3479052 -0.19408354 0.71368295 -0.519513 0.19640145 0.12310445
0.18805274 0.29071683 -0.17655215 0.009392345 0.21715958 2.5623937 0.4016327 -0.014780998
0.07300064 1.4445549 -0.19312635 -3.6185956 -0.45231807 -2.3267374 -0.026976006 -0.37315917
0.35185865 -1.370515 0.36020324 0.54174733 -0.36742628 1.9347447 -0.45808893 -0.44768408
0.31330934 -0.6870483 -0.29774308 -1.5711173 0.15976074 -0.48306575 0.030962374 -3.4128003
0.03061333 -3.7591407 -0.084482655 1.0956867 -0.030503482 3.048013 -0.5550302 -0.40166414
-0.40983436 -3.3238764 -0.10299973 -0.53103554 0.49412814 -0.56663543 0.39048025 0.5175858
0.5359491 -0.017427316 -0.086152636 0.53603595 0.03633718 0.06337 -0.033667192 -0.304724
0.36191815 -0.26587525 0.4534858 1.7976527 0.3606843 -0.49381194 -0.5737419 -0.74698865
0.6963528 -0.6141165 -0.006480415 -0.32135808 -0.23738967 0.018939108 0.19411573 0.5338519
-0.06308577 -0.52426857 -0.037730787 -0.41802442 0.29114798 -0.6657716 -0.07035236 0.40581152
0.046675105 0.06577092 -0.19919503 -1.1806326 0.32416448 -0.62367 -0.5157362 -0.07854463

l1.bias f4 [200]
00000000: 61d1 b3be c2d9 aebe 11ff b1be 0fb5 10bd
00000010: 288c 503e cbfc e3be c2af b5be 8b38 06bf
00000020: 1436 d6bd a22a 073e 2a52 14bf 95d8 a3bd
00000030: c89e d13e 2478 31bd aba5 bcbd 0582 6cbb
00000040: b89b 0bbf aa22 f13d 069b 91be 0d8f b8be
00000050: c9b9 a33e 0471 ae3e ce42 80bc d364 0ebd
00000060: 670f 513e 49e0 2b3e f584 a9bc 742c 12bf
00000070: fd0f 2bbf c8f6 ba3e b1f1 37bd f10f 3ebf
00000080: 920d 813d 248c 563d 1d38 3abd e8ef d93b
00000090: 5d0c 5ebe 2ee3 893d 53f4 983e f2e6 2abf
000000a0: 6949 d33e e385 eb3c 0e0b a9bc ca71 48bd
000000b0: 7396 153e f91f 21bf 95ff 2bbf aefe ea3d
000000c0: 1a6a 843e 8751 8d3e 7c9f 06bf 2f5a d43c
000000d0: f78b 4fbd 9128 a73d 3114 42be 95a0 e9bd
000000e0: c54d a63d 8eed 9ebe c96a 2dbe 8817 19bf
000000f0: a994 27bf 3d29 5e3e 1fb7 f3bd 4633 a53d
00000100: 93c2 b7be 2f12 5bbe 552a 8f3c 4216 843d
00000110: 2c22 27bf b1f6 743d 8b17 dd3e f7ff 1dbf
00000120: c79e ea3e f2c1 93bd 4afe 2bbd 1da6 b03e
00000130: 8893 9ebe ecbb 8c3e ea26 c03e 15ab e8bc
00000140: 1633 9d3e 01b2 f8be 4887 bb3e bf31 88be
00000150: 8ba7 16bf 80b4 59be 136a 8c3e c153 953e
00000160: bbb5 db3d 089a 42be cb64 dabe a037 cdbe
00000170: 5584 053d 8983 95be b42d 623d 42c3 1cbf
00000180: d5fa 7f3e 1516 83be 450a f3be 559e 39bd
00000190: f566 a5bc 653a 89bc 53a0 813c 344b 07bf
000001a0: 0ebc b4be a643 a0be 5355 19bf 18aa 01bf
000001b0: 92c3 873e 0b48 e2bd ab10 933d 923c cd3d
000001c0: 7a3d 1d3e ef0a a83e 9ad0 09bf a296 3abf
000001d0: a91f 3c3c f23a 26bf 03c3 f7be 5256 a33e
000001e0: aae1 213b 017d 27bf bb88 dabe c1d6 31bf
000001f0: 4d65 15bf defd 91bd 0db9 1fbf 4adb dabe
00000200: 9b33 9b3e b52f e1be 422e 96be b8ac 04bf
00000210: ebf0 6dbc 7478 bdbe e005 503d 8bb2 5b3c
00000220: d917 283d 8327 a13c f347 d23d 7808 63be
00000230: 41d4 e3be b53c 9d3e a75a 21bf d754 e23b
00000240: 51b5 0bbf 7fa5 96bb d9c4 6c3d f70b bbbd
00000250: 1bd1 19bd c22b e4be 3883 0c3e e886 12bf
00000260: 8e38 143f e06d c9bc bd8b afbe 9a25 17bf
00000270: eda7 0bbf 14ce 5ebe 1b32 4f3e 55de 043f
00000280: 5fa3 e2bd e55d a2bd c60b e8be 17a3 1a3b
00000290: b405 2abf 7821 653e a278 bdbe 97f2 00bf
000002a0: e60b 213e e284 86be 3acb f2be 0083 ae3e
000002b0: 4b9f cc3e 1db8 f8be 565e 8fbd 8fe9 abbe
000002c0: c1f6 68be 3294 cc3e 1ac5 95bd 46cd da3d
000002d0: f1b9 0abf f5bd cf3e 0386 653d 57bd 413e
000002e0: d54e 8cbd 8334 673e 6740 d8be c2b2 debe
000002f0: 124f 20be 71f4 52be 94a0 1cbe 1268 9fbe
00000300: 5839 ee3e 9230 00bf ea37 02bf 1862 6e3e
00000310: 0e49 17bf 4ce2 dd3c fdd4 823c 9f0a bbbe
-0.3512068 -0.3415051 -0.34764913 -0.03532892 0.20365965 -0.44528803 -0.35485655 -0.5243003
-0.10459533 0.13199857 -0.5793787 -0.08000294 0.40941453 -0.043327466 -0.09211286 -0.003608824
-0.5453448 0.1177419 -0.28438586 -0.3604664 0.3197768 0.340706 -0.015656855 -0.034764122
0.20416032 0.16784777 -0.020693282 -0.5709908 -0.6682127 0.36516404 -0.04490823 -0.74243075
0.063014165 0.052379742 -0.04546367 0.0066509135 -0.21684404 0.06732784 0.29873905 -0.66758645
0.41266945 0.028750366 -0.020635154 -0.048936643 0.14608173 -0.6293941 -0.6718686 0.114743575
0.258622 0.27601263 -0.52587104 0.02592191 -0.05067059 0.08162034 -0.18953015 -0.11407582
0.08120302 -0.31040615 -0.16935267 -0.5980153 -0.6546121 0.21695419 -0.11900162 0.0806642
-0.35890636 -0.21393655 0.01747624 0.06449558 -0.6528652 0.059805576 0.43182024 -0.61718696
0.45824262 -0.072147265 -0.041990556 0.34501734 -0.30971932 0.27487123 0.3752969 -0.02840189
0.30703038 -0.48573306 0.3662665 -0.26600453 -0.588494 -0.21260262 0.27424678 0.29165462
0.10728022 -0.19004071 -0.42655024 -0.400815 0.032596905 -0.29201916 0.055219367 -0.6123544
0.24998029 -0.25602785 -0.47468773 -0.045317013 -0.020190695 -0.016751477 0.015823519 -0.52849126
-0.35299724 -0.31301612 -0.5989582 -0.5065017 0.26516396 -0.11048897 0.071809135 0.100213185
0.15355483 0.32820842 -0.53833926 -0.728861 0.011482158 -0.64933693 -0.4839097 0.31901795
0.0024701157 -0.65425116 -0.42682442 -0.69468313 -0.583577 -0.071284994 -0.6239174 -0.4274543
0.3031281 -0.4398171 -0.29332167 -0.5182605 -0.014522771 -0.3700596 0.050786853 0.013409267
0.041038368 0.019672161 0.102676295 -0.221712 -0.44497874 0.30710378 -0.6302895 0.0069070864
-0.5457354 -0.0045973654 0.057804916 -0.091331415 -0.037552934 -0.44564635 0.13721931 -0.572371
0.57898796 -0.024588525 -0.342863 -0.5904175 -0.5455311 -0.217583 0.20233957 0.5190175
-0.11066317 -0.07928065 -0.45321482 0.0023595744 -0.6641495 0.22376049 -0.37006098 -0.5037016
0.15727195 -0.26273257 -0.47420675 0.3408432 0.3996528 -0.48577967 -0.07000415 -0.3357663
-0.22750379 0.39956814 -0.07312985 0.10683684 -0.54189974 0.40574613 0.056036007 0.18919884
-0.068509735 0.22578625 -0.42236635 -0.43495756 -0.15655163 -0.2060106 -0.1529563 -0.31134087
0.46528125 -0.5007411 -0.5086657 0.23279607 -0.5909585 0.027085446 0.015970701 -0.3653154

l2.weight f4 [200, 200]
00000000: 3f48 b23c f519 e6bb 600c 96bc 8cf9 f0bc
00000010: 30be 90ba 6eba 2bbd 7ca5 75bc 811f 2c3b
00000020: bfd1 fabc cbb8 8b3b 5437 f2bb b336 66bd
00000030: 9cb9 c8bc e4bf 37bc f3d0 2cbc 6c9b 253b
00000040: dbe1 fe3c 2fa9 8abb b9dc 46bb b479 093d
00000050: 098c a43c 88c1 6ebd 4507 bfbd dbc5 f3bb
00000060: 7a34 e8bb d47a 333d a201 64bd 2026 363c
00000070: 9e69 6b3c c9c9 86bd 2d17 daba 3295 3fbd
00000080: 5911 343d fd73 c3bd c491 313d b3f4 21bd
00000090: 474b 8ebc 28e8 d1bb 8b5e 01bd dcad f9bb
000000a0: d076 3dbd 2634 87bd 6cb2 1cbd fda1 44bc
000000b0: 5d56 41bd f017 00bb 85a9 ef3c 9ec5 c7bc
000000c0: 4e70 0cbd f223 cab9 acfc 25bd b100 91bc
000000d0: a4b8 61bd 8e4a 2e3d 7496 183c bfb0 e03c
000000e0: ae09 b9bd f36d e9bc 1323 e33c b4ee 37bd
000000f0: 8c04 8d3d ea81 24bb 5812 92bd 1c1c 2e3c
00000100: 4e65 eb3c 2b8b 37bd ff04 51bd 4a6c 0dbd
00000110: 84a0 0a3d 5d03 023d 7756 8fbb fb9f 11bd
00000120: 9313 ba3c 12df 543d 4c94 373c 6a21 15bd
00000130: 19bd 843d 48af 8fbd 5345 04bd d050 23bd
00000140: 0ad0 adbd f5d0 c7bb a769 bab9 8ba2 50bd
00000150: 44f6 bbbb 45eb 0f3d ee99 b0bc c3ea 9c3c
00000160: 2f5d 4ebc 085b 19bd d35a d33b d67e 3abd
00000170: c6e5 72bd c8c3 8fbd 0410 04bd c207 e73b
00000180: ad52 0cbd 239f 5e3d 1730 843d 550f 8d3d
00000190: 3e6e 28ba 46cf afbd 9aaf 55bd 3bc5 4e3d
000001a0: 7d72 8bbd a358 00bc af60 5f3c 3ce7 d5bc
000001b0: d9ee 90ba 2d14 98bd eac9 173d af6f 7cbc
000001c0: 0d2f f73c 3cb2 c8bc 7dc4 22bd 3443 cabc
000001d0: c5b4 d23c 0356 ce3c 5b01 283d b4f2 fb3c
000001e0: 6f7c 6fbd 64ce 6abd 90d4 7c3c 621a e43c
000001f0: 798b c63b dc7e bebc 7a5f 0f3c a880 f2bb
00000200: f777 dfbc 3f28 eb3a 351e 113d 73b1 23bc
00000210: deb9 733c 2934 17bc 4b1b 84bd a0b5 bbbb
00000220: 7fb5 c6bc e1ca 243d 79c8 bebd 91f9 223a
00000230: d89c 3bbd b11e 593c e871 7b3d 8f14 38bd
00000240: 215b 633c 4b22 ebbc 1ac2 dabc 6641 c53c
00000250: e6d4 103d e630 143d 5b57 00bd 8ae9 2ebc
00000260: 1ed2 203d ae15 703d 82f0 1fbd 58ea 8e3c
00000270: 25ee 8c3c cc65 a0bc 811d 96bd 0e2f 86bc
00000280: ac5a 8d3d d177 a2bd 0acc 803d a7f6 653c
00000290: acf3 733b ad88 72bd 8c8f b3bc edbf 633d
000002a0: c1f7 9fbd 2db2 133d 6c82 27bd 1d95 81bd
000002b0: 148f ed3c a6f2 883d 5146 603c e8ee 183d
000002c0: a457 7fbb e438 b0bd e0cb c2bb cfb4 5ebc
000002d0: 0592 01bd 34bc 45bd 8804 5ebd 2fd1 bfbd
000002e0: 93c2 b6bd 6542 94bd bc82 ba3c 302e debc
000002f0: f4dc e33c ff05 90bd 9398 66bd 5be0 f83c
00000300: a641 f9bc 5f82 5bbd ffdb 52bd dd4b adbd
00000310: 87e3 67bc bfe4 65bc 8160 8ebd e679 a0bc
00000320: c60d 8abd 21f8 dd3c 1d56 26bd fa28 e5bc
00000330: 2f30 8d3d 4b42 e13c 7877 7fbd 6d62 45bd
00000340: 93cb 82bc 14e9 98bb 1076 ca3c 3cca c0bc
00000350: 4e1f 06bc 4c30 cd3c 589c b7bc f3a4 8f3c
00000360: ebf7 8c3d 5088 8bbd a582 3abc 4f1b 933c
00000370: c258 5a3c 5c22 a0bc 6e05 6cba 6b39 823c
00000380: 9805 66b9 e7e5 3c3c a30e 01bd 8fc9 23bd
00000390: 4267 14bc d31d 133d 3791 1ebd d82c 333d
000003a0: a773 6abb 79ac c13c a210 a53b 5767 5ebd
000003b0: 1370 39bd 33eb fdba 5b6f 1fbd 2039 83bc
000003c0: c7c1 e03b ba1e 9fbc 108a 2bbd 446d 6c3d
000003d0: 9883 a33a 0c8e 303d ea66 6abd 2c38 8b3d
000003e0: 6902 853c 2aad 81bd 995b 2abd 57f7 cab9
000003f0: 16cf 373d d2f0 7abd 3534 e83b 72ef 15bd
0.021762965 -0.0070221373 -0.018316448 -0.029415868 -0.0011043008 -0.04192584 -0.014993068 0.0026263895
-0.030617593 0.0042639724 -0.0073918495 -0.05620451 -0.024502568 -0.011215184 -0.010547864 0.002526964
0.031113556 -0.004231594 -0.0030343963 0.03356333 0.020086305 -0.058290035 -0.093275584 -0.0074393577
-0.007086334 0.04381831 -0.05566562 0.011117488 0.014368443 -0.06581456 -0.0016638987 -0.046773143
0.043961857 -0.095436074 0.043351904 -0.039540004 -0.01736988 -0.006405849 -0.031584304 -0.0076196026
-0.046255887 -0.066017434 -0.038256094 -0.012001512 -0.047201503 -0.0019545518 0.029255638 -0.024386223
-0.03428679 -0.00038555224 -0.04052417 -0.017700525 -0.055107728 0.04255157 0.009313215 0.02742803
-0.090350494 -0.02849481 0.027726686 -0.04490538 0.06885633 -0.002510185 -0.07132405 0.010626819
0.02873483 -0.044810455 -0.051030155 -0.0345271 0.033844486 0.03174149 -0.004374321 -0.03555296
0.022714412 0.05197055 0.01120479 -0.03640882 0.0648138 -0.07015854 -0.032292675 -0.03987199
-0.08486946 -0.0060979077 -0.00035555402 -0.050936263 -0.0057361443 0.03513648 -0.021557774 0.019154912
-0.012595459 -0.03744033 0.006450036 -0.045531116 -0.05930116 -0.07019764 -0.032241836 0.0070504854
-0.034258533 0.054350983 0.06454485 0.0688769 -0.0006425119 -0.08584456 -0.05216942 0.050481062
-0.06808946 -0.007833633 0.013633891 -0.026111238 -0.001105751 -0.07425723 0.037057795 -0.015407487
0.030173803 -0.024499051 -0.039738167 -0.024690248 0.025720963 0.025187498 0.041016918 0.030755378
-0.05846828 -0.057325736 0.015431538 0.027844612 0.006059107 -0.02325385 0.008750791 -0.007400591
-0.027278883 0.0017941071 0.0354292 -0.009991038 0.014875857 -0.009228745 -0.06450518 -0.0057284385
-0.024256466 0.040232543 -0.09315581 0.0006216998 -0.045803875 0.013251946 0.061387926 -0.04494148
0.013876707 -0.028702876 -0.026703883 0.024079036 0.035359286 0.036179446 -0.03133331 -0.010675797
0.039262883 0.058614425 -0.039047725 0.017445728 0.0172034 -0.01957979 -0.07329846 -0.01637986
0.0690206 -0.079330094 0.06288917 0.014035857 0.0037224097 -0.059212375 -0.021919034 0.055602957
-0.07810927 0.036058594 -0.040895864 -0.06327269 0.028998889 0.066869065 0.01368864 0.037337214
-0.003896215 -0.08604601 -0.005944714 -0.013592913 -0.031633396 -0.048275188 -0.05420354 -0.093660705
-0.08923831 -0.07239226 0.022767417 -0.027121633 0.02781532 -0.07032394 -0.05629785 0.030380419
-0.030426811 -0.05359113 -0.051479336 -0.084617354 -0.014153368 -0.014031588 -0.069520004 -0.019589376
-0.06740908 0.027095856 -0.040609468 -0.02797364 0.06893956 0.027497431 -0.062369794 -0.04818957
-0.015966212 -0.004666457 0.0247145 -0.023533933 -0.008186175 0.025047444 -0.022413418 0.017534709
0.06883224 -0.06813109 -0.011383687 0.017957358 0.013326826 -0.019547634 -0.00090034946 0.01589652
-0.00021936593 0.011529422 -0.0315081 -0.039987143 -0.009057822 0.035917114 -0.038712706 0.04374394
-0.00357745 0.023641812 0.005037383 -0.05429777 -0.045272898 -0.0019372463 -0.038924556 -0.01601845
0.0068590376 -0.019423831 -0.041879714 0.05772139 0.0012475131 0.043104216 -0.057227053 0.06797823
0.0162365 -0.063318565 -0.04159126 -0.00038712725 0.044875227 -0.06126482 0.0070863017 -0.036605306

l2.bias f4 [200]
00000000: 9376 37bd 5f68 22bd 7094 a8bc 0ed7 b73c
00000010: 8aaf a1bd 8b35 95bc 1d93 a53c 524e 99ba
00000020: 84c8 683d 153e 84bc fe0a 4c3a 9b01 64bd
00000030: 5c6f ba3c 948c 513d 3868 47bc 75db adbc
00000040: f4db 8ebd b9e6 69bd 83da 2f3d f263 1d3c
00000050: 7f65 25bb 5452 1fbb c91f 8bbd 27cb 76bd
00000060: 8642 a73b 1e82 62bd d6fe 0abc 82d1 4c3b
00000070: b0d3 153d fb7f 01bd 6183 613c 7731 063c
00000080: 3cda 02bd 3e5f 013d 0d32 b7bd 16c4 ce3c
00000090: d771 8cbc cd08 8abd 5686 0f3d 3df1 3ebd
000000a0: 708d da3c 7c50 04bd 1648 8ebd 0e73 adbb
000000b0: c100 bbbb c63e 6fbd 1580 0d3c 9a27 cb3b
000000c0: f17b 183d db01 5c3c 72dd c13c 0dd1 08bd
000000d0: 8ae3 61bd fad8 05bc 1f44 e43b dfb5 34bd
000000e0: 39e7 83bc f4fe 033e adc8 b2bd a566 50bd
000000f0: 211b 0abc 6dce b739 0e67 3a3d c2f7 bebd
00000100: c751 b4bd 3212 0e3d 9d6b 93bc b1dd 1dbd
00000110: 374c 1cbd 3576 e8bc 5010 3e3d afeb 333c
00000120: 0240 b6bc de61 63bd ece0 f13c fab5 56bd
00000130: c5cc 2ebd a610 12bc 67f2 2bbc 1eca 32bc
00000140: 89b5 a93a be3f acbc bcd1 6f3c 8719 cdbc
00000150: 7065 70bd f6e0 41bd a812 9bbd 519c e03c
00000160: e510 9ebc 54ef 39bb 0ec1 ee3c 22be 443d
00000170: 89b6 973c 457c 3fbd 75ca 313d e0ed b2bd
00000180: 4bf7 7f3b de50 763c 5ec7 0abd 45d9 14bd
00000190: f080 aebd e7dd 4ebd f015 70bc 1607 44bb
000001a0: b397 53bd 2e7f 8dbc 66bc 223c 6aaa 8b3b
000001b0: 6ef4 59bd bac9 03bd 9830 66bc 69e4 a0bd
000001c0: f687 08bb cd75 54bd 55c4 43bd 621c 4dbd
000001d0: 2264 e93c dc0c e53d 325e c4bc d1da cebd
000001e0: 6149 51bd 6d99 3abd 16e0 ac3c a3cf 01bd
000001f0: fca8 21bc 0630 553d efb4 aebc 9be4 0d3c
00000200: 9c5c 1fbb 1a0e 433c 518a 5bbd f0f4 743b
00000210: e5f4 7cbd 8394 49bd 9d06 eebc 1b9e 8dbd
00000220: 01e5 de3c e24b 90bd 19bb 53bd 513f 3cbd
00000230: 3124 103d b175 613c 9d08 3ebd bb20 02bc
00000240: a32c 74bd 5f47 86bd 511e 893c 9db3 ce3c
00000250: 22a5 8bbd 818e 68bd 9b42 78bd 7d7c e6bb
00000260: 6eca 8cbd a182 043d b6bb 24bd 5ac7 81bd
00000270: ec15 d43b 4432 fabc 2515 bdbc 1435 47bd
00000280: 242d c23c b42b 31bd b47f 19bd 8dc3 48bd
00000290: 9847 9abb 02f1 87bd 5e89 8dbd c389 a23c
000002a0: a72a 20bd 7d12 eebc ebbd 93bc 49f5 7fbd
000002b0: f6e8 1cbd 3360 d03b 35a0 36bd 3790 02bc
000002c0: 397e e63c 3746 cfbc 3b9b 623c 36c4 57bb
000002d0: 384e 1abd d314 00bd 144e e63c 28a9 9ebc
000002e0: 6aa2 90bd 2866 623d 4241 b2bc c3d7 9e3d
000002f0: 2611 84bd 79b1 adbb 32b8 78bc e374 b6bc
00000300: d66b 8fbc 5792 a63c b3cb b8bc 85cf 2c3d
00000310: db9d 5b3c 88c6 81bd 07d3 b53d 4ee2 4abc
-0.044790816 -0.039650317 -0.020578593 0.022441413 -0.078948095 -0.018214008 0.02021175 -0.0011696315
0.05683185 -0.016142884 0.00077836204 -0.055665594 0.022758178 0.051159456 -0.012170844 -0.02122281
-0.069755465 -0.0571048 0.042933 0.009606348 -0.0025237498 -0.0024310546 -0.06793172 -0.060252335
0.0051043658 -0.05529987 -0.008483609 0.0031252806 0.036578834 -0.031616192 0.013764233 0.008190504
-0.031946406 0.03158497 -0.08945093 0.025239985 -0.017144127 -0.0673996 0.035040222 -0.04661678
0.02667877 -0.03230332 -0.06947343 -0.0052932566 -0.005706877 -0.058409475 0.008636494 0.0061997892
0.037227575 0.013428177 0.023665164 -0.03340249 -0.05514864 -0.008169407 0.0069661285 -0.04411876
-0.016101466 0.12890226 -0.08729682 -0.05087914 -0.00842932 0.0003505828 0.045508437 -0.093246
-0.0880466 0.03468532 -0.01799565 -0.0385415 -0.03815862 -0.028376678 0.046402276 0.010981484
-0.022247318 -0.055513255 0.029526196 -0.05241964 -0.042675752 -0.008915102 -0.010494805 -0.010912446
0.0012947778 -0.021026488 0.014637407 -0.025036586 -0.05869049 -0.04733368 -0.07571918 0.027418287
-0.019295165 -0.002837141 0.02914479 0.048032887 0.018519657 -0.046749372 0.04340597 -0.08736777
0.003905731 0.015033929 -0.033881538 -0.036340017 -0.085206866 -0.05050459 -0.014653668 -0.002991145
-0.051658344 -0.017272558 0.009932613 0.0042622583 -0.053211622 -0.032174803 -0.014049672 -0.07856066
-0.0020832992 -0.051870156 -0.04779466 -0.050075896 0.02849013 0.11184093 -0.023970697 -0.1010033
-0.05109537 -0.045556474 0.021102946 -0.03169216 -0.009866949 0.05204775 -0.02132651 0.008660461
-0.0024316674 0.011905218 -0.053598706 0.003737744 -0.061756987 -0.049213897 -0.029055888 -0.06914922
0.027208807 -0.070457235 -0.051692102 -0.04595882 0.035190765 0.01376097 -0.046394933 -0.007942374
-0.05961288 -0.06556582 0.016738089 0.02523213 -0.06818606 -0.056776527 -0.060610395 -0.007033883
-0.06874548 0.03235114 -0.040218078 -0.063368514 0.00647234 -0.030541547 -0.023081372 -0.048634604
0.023703165 -0.04325457 -0.037475303 -0.049014617 -0.0047082417 -0.066377655 -0.06910966 0.01984108
-0.039103176 -0.02906155 -0.018034896 -0.06248978 -0.038308106 0.006359124 -0.04458638 -0.007968954
0.02813636 -0.025302036 0.013830955 -0.0032923347 -0.03767225 -0.03126986 0.028113402 -0.01936777
-0.07062228 0.055273205 -0.021759633 0.07755997 -0.06448583 -0.0053006974 -0.015180634 -0.022272533
-0.017507475 0.020333452 -0.022558069 0.042190094 0.013404335 -0.06336695 0.08878141 -0.012383057

l3.weight f4 [3, 200]
00000000: 8a8e a6bc de14 9b3c a3e2 613d 3fcc a8bd
00000010: 49c0 ab3c 7d02 09bd db07 0f3c 198f e2bb
00000020: 5c49 19be a601 26bc d13e 92b8 5f53 77bc
00000030: b955 afbc 719a d9ba f6e8 983d 9aa5 463c
00000040: c233 8d3c 9f7d 8d3d d8f0 b53a 0ae6 0b3d
00000050: f892 7b3c 94d7 e3b9 f7ce dcb9 55bb 0bbd
00000060: cf69 89bc cc00 a83c 4fb2 1d3d 9fba a03c
00000070: 7969 05bd d0e9 81bc 197e 5cbb d5a8 8e3c
00000080: 86f5 8d3c d486 4b3d 3c33 4bbd c76a 4c3b
00000090: e3f5 e0bb 565c 7dbc ff8d 60be 7558 6cbb
000000a0: 32bd 933c 1c76 843c c770 ed3c e896 83bc
000000b0: d818 d83c f0d2 8e3b a6d0 5c3d 951b 9fbc
000000c0: cb1d 6abd 3141 ce3c 9d1a 89bc d8ae 163d
000000d0: 9fe9 0c3b 5964 003d d0f0 8abb 8648 59bd
000000e0: f7d0 8bbc d30c f53d a75a 37bd 5bff 453d
000000f0: e915 45bb 5ac9 3e3d 09a1 52bc 5a0b 8d3c
00000100: 9b8c 1c3d 62ba 9d3c 5c19 a5bb 6605 67bd
00000110: 44ba 17bd 1bc4 3abd 6ed5 3dbe 8111 22bd
00000120: 69c8 a33c b9e9 22bb ad61 0cbd cdda 313b
00000130: 5200 e03c cfbb f43c 1c33 843d 40eb 5bbb
00000140: 5c1e 14bd 97f6 09be d843 ed3c dc7b e83c
00000150: e450 0cbd 3e54 883d 125a 373c 886f 75bb
00000160: fc63 193d 671c 2e3d ba08 a33c 54d6 3ebc
00000170: 3629 863a e215 863a 8994 35be 6fdf 10bd
00000180: 69a6 363e e4f3 30bc 4d83 70bd 85ef 7cbd
00000190: f13e 60bd 3189 5fbd d839 4c3d adc4 90bd
000001a0: 6b31 773d 8a19 06bd fa47 1ebc 08f7 8cbc
000001b0: 303f 953c 7dcc 22bd 49bf a43a 17eb 58bd
000001c0: 4a3d 9fbb 1808 33bd 44a7 4fbd 432a 0a3c
000001d0: 1895 e6bc 1f1f a83e f83c 763d 0880 b6bc
000001e0: 42fa 5a3d d35b cf3b 80d3 443d 1ede bc3c
000001f0: e96e 27bd 2a61 373e 52f3 c9bc d0ef 223d
00000200: dd6c 663c e900 5ebc b6d9 ca3c 580d 3ebc
00000210: fb43 ab3c 37aa b4bc e82c 32bd f238 0cbd
00000220: a6eb 47bd 74e0 4e3d 6954 5a3c 2da6 5fbc
00000230: 5b1b 533c 1392 143d e2a3 d83c 308c 243c
00000240: 0174 c03b e46f 733b eba1 01bc fc3c f9bc
00000250: d531 dcbc 93f9 163c 921a 903b 0b27 e0bc
00000260: d9cb b0bd 6df0 813d 15e8 09bd a750 08bd
00000270: 0481 80bd 11b9 783d d4ac 83bb 787e afbe
00000280: f84e cf3c 29eb 0bbd 5530 1a3d 41c3 b83c
00000290: be8b 373d 9f1b 7dbd 9a25 9dbb 8288 973c
000002a0: 398f febc 38d7 d33c 955e 09bd 01c4 f63c
000002b0: 1fbf c7ba 2490 043e 70fa 66bd e290 d3bc
000002c0: c388 76bc 7156 e73c ce73 8dbc a89e 44bd
000002d0: 7a31 cb3c 78dd 543d 2462 48bd b9d1 86ba
000002e0: 6e7c f53c 0fbd 6bbe d759 f73b fe59 ee3d
000002f0: ec2d 22bc eb1b aabd bfa5 8bbc 0ffb 36bb
00000300: 93c6 ab3e 6cb8 0f3d 3226 2e3d 5d34 b23e
00000310: 0562 003c 1961 a53c 559a b43d 40fc 5bbd
00000320: cb3a e53b e05b 47bd 4fa2 30bc 78a4 23be
00000330: fb5a b53c fc92 ed3c 573e a53c 0c13 563c
00000340: 97f1 29be a4d5 923c 1490 853c 7796 1cbd
00000350: faf2 da3c 0cdb fe3c c982 6cbd 822e 11bd
00000360: 1c46 e53b 7d06 84bc b2af 8fba adbd c43c
00000370: 3a1c a13c 1652 4b3d f4c1 753c 2cbb 9ebb
00000380: 9aac ae3b 6515 00bd c99b d3bb 1d77 483c
00000390: f0f7 9fbc 0fcd f93c 2c8c 3b3c d2ea 103d
000003a0: 997c 27bd 77e7 01bc 609e a03c dbfd 153a
000003b0: 6fcc 1bbd a863 7fbc 38b9 5cbe 5fc1 c33c
000003c0: 54f9 373d f6a5 313d cf44 fa3c ce4f f8bc
000003d0: 7940 90bd 8457 3fbd 8bab c83c 86d0 0a3d
000003e0: d6ac 903d fcad 5cbc baf5 163d 8728 1c3c
000003f0: 1432 3dbd edca 303d 0b8b e83b 9597 743c
-0.02033164 0.018930849 0.05514778 -0.08242082 0.020965712 -0.03344964 0.0087299 -0.006914031
-0.1496939 -0.010132229 -6.973523e-05 -0.015095561 -0.02140318 -0.0016601813 0.07466309 0.012124443
0.017236594 0.06908726 0.0013880981 0.03415493 0.015354864 -0.00043457432 -0.0004211587 -0.0341142
-0.016774086 0.020508192 0.038500126 0.019620238 -0.03257129 -0.01585856 -0.0033644496 0.01741449
0.017328989 0.04968913 -0.049609408 0.0031191574 -0.0068652495 -0.015463909 -0.21929167 -0.0036063467
0.018034551 0.0161696 0.02898444 -0.016063169 0.026379034 0.004358642 0.05390992 -0.019422332
-0.05715732 0.02517757 -0.016736323 0.036787838 0.0021501554 0.0313457 -0.004240133 -0.05304768
-0.017067416 0.11965337 -0.044764187 0.04833923 -0.0030072874 0.046578743 -0.012855777 0.017217327
0.03822003 0.019253913 -0.0050384235 -0.056401633 -0.03704287 -0.045597177 -0.18538448 -0.039567474
0.019993024 -0.0024858548 -0.03427284 0.0027138472 0.027343903 0.02987471 0.06455061 -0.0033556968
-0.036161765 -0.13472973 0.028963014 0.028379373 -0.03425683 0.06656693 0.011190908 -0.003745051
0.03744887 0.042507555 0.019901622 -0.0116477795 0.001023567 0.001022991 -0.17732443 -0.035369333
0.17836918 -0.010800336 -0.05871897 -0.06175186 -0.054747526 -0.054574195 0.04985985 -0.07068763
0.060349863 -0.0327392 -0.009660715 -0.017207637 0.018218607 -0.039745796 0.0012569214 -0.052958574
-0.004859601 -0.04370889 -0.050696626 0.008432928 -0.028147265 0.32836244 0.060116738 -0.022277847
0.05346132 0.006328085 0.048053265 0.023055132 -0.040877257 0.17908159 -0.024652157 0.039779484
0.014064041 -0.013550022 0.024762016 -0.011599861 0.020906439 -0.022053821 -0.043499857 -0.034233995
-0.048808716 0.050507024 0.013325789 -0.013650459 0.01288494 0.03627212 0.026445333 0.010043189
0.0058732037 0.003714555 -0.007912139 -0.030424587 -0.02687923 0.009214777 0.0043976987 -0.027362367
-0.08632631 0.06344686 -0.033668596 -0.03328004 -0.06274608 0.060723368 -0.0040184055 -0.34276175
0.02530621 -0.034159813 0.03764375 0.022554042 0.044811003 -0.06179392 -0.004795742 0.01849771
-0.031074153 0.02585946 -0.033537466 0.030122759 -0.0015239454 0.1294561 -0.05639118 -0.025825921
-0.015047255 0.02823946 -0.017267134 -0.04800287 0.024803866 0.05196902 -0.04892172 -0.0010285891
0.02996656 -0.23021339 0.0075485515 0.116382584 -0.009898644 -0.08306106 -0.017046807 -0.0027920639
0.33549938 0.035087988 0.042516895 0.34805575 0.00783587 0.020187901 0.08818499 -0.05370736
0.006995534 -0.048671603 -0.010780885 -0.15980709 0.02213811 0.029000752 0.020171328 0.013066065
-0.16596065 0.017924137 0.016304053 -0.038229432 0.026727188 0.031110309 -0.057741914 -0.035444744
0.006996883 -0.016116375 -0.0010962395 0.024016226 0.01966678 0.04963883 0.014999855 -0.00484409
0.0053306343 -0.031270403 -0.00645778 0.01223543 -0.019527406 0.030493287 0.011446994 0.035380192
-0.04089031 -0.007928721 0.01960677 0.00057217263 -0.03803676 -0.015587725 -0.2155503 0.023895917
0.044915512 0.043371163 0.030550389 -0.030311491 -0.07043547 -0.04671432 0.02449586 0.03389027
0.07064216 -0.0134692155 0.036855437 0.009531147 -0.046190336 0.043162275 0.0070966533 0.014928718

l3.bias f4 [3]
00000000: 0ff5 0b3d 9462 ed3c 89b1 2d3d
0.034169253 0.02897767 0.04240564
